saved_models/ann_face_recognition.pt (torch, 275338 bytes, 6 tensors)

net.0.weight f4 [256, 128]
00000000: a0b0 773d dad2 a43d 83dc 26be aca8 a73d
00000010: 88b9 2f3e 5165 9c3d 96b4 de3d 9fb6 a43c
00000020: 2cc9 c73c 5a51 f53c db24 223d 650b de3d
00000030: 9e44 a5bb d824 1dbe bf45 e83d 76e7 28bd
00000040: 768c 54bd 145c 52bc 5a7e 2cbe 7a76 47be
00000050: a312 5bbe 34ba 60b9 7831 80be c3d7 47bc
00000060: bbc9 70bd b726 2abd 7b86 a93d b412 31be
00000070: 24ee 683e b938 8fbc fc4a 30be 945e 8dbd
00000080: 94f1 55bd 28cb 32bd d4fd ac3c 986c 4abe
00000090: a539 81ba 44e7 f13d ad44 973d 413a 17be
000000a0: a223 613d 5897 3e3e 4f32 ebbd 65a0 ba3d
000000b0: 61f9 d33d 11d5 b7bd 817b 5fbe 8604 34bd
000000c0: 71a5 cd3c 4a29 66bd e0f7 023e abcf 563d
000000d0: 994d 433e 58c2 ba3d 0a3c 023e 9c0d ed3d
000000e0: 346c b2be 1e4a ff3d 8adf 3e3b c11a 57bd
000000f0: 3a10 063e e485 ce3d 1bde 8dbe f62b 253e
00000100: 02c0 86bd 1c90 013e f0cf 88bc e397 e2bc
00000110: 4182 4b3c 23ca 8abd 74d7 693e 16e5 33bc
00000120: c0c6 0d3c be73 77bd 59a2 b4bd 4a35 433e
00000130: aacc 053e c8f6 9d3b c39b 01bd 0f25 50be
00000140: e0f5 21bd ac14 0bbe 990a fe3d 4949 52be
00000150: 9879 f9bd 2541 83be fd74 70bd d1cb 7b3d
00000160: b494 82bd d323 e03d ec7f 88bd 7627 ed3b
00000170: 30ec 77be a376 a5bd de89 03be c075 1abe
00000180: 3db1 2fbd 96bd 83be 168c 3fbd c2f0 23be
00000190: 5a52 5d3e 4d20 1ebd 2d22 ea3d 0b94 4b3b
000001a0: e3ff 27bd f511 ac3d acc5 383e fbb8 b23d
000001b0: afaf e83d b921 1f3e 9617 4bbd f424 dc3c
000001c0: 8113 df3d 8288 643d 38d4 313d bf29 373d
000001d0: 56b9 1ebe 52ff cebd fc45 033e eb13 a13c
000001e0: f990 c4bd 5579 1b3b 4ae9 f5bc 6f9e 24be
000001f0: 0480 663c 4bf4 04be a6a0 cb3d a9b9 1dbe
00000200: d991 833d cfc7 04bd 06d9 903d db3f e43c
00000210: 408f 49bc 407e a53d 5bd7 f03c cf09 b93a
00000220: 6e03 493d bf74 93bd 94d5 6b3c 3e4b a5bb
00000230: b7a0 8fbd bebf 8abc dcde 393d 2d4b a5bd
00000240: a141 51bd 7547 8abd a862 483d 5d4e 8dbd
00000250: 3a84 993c 4d1c c4bc 307b 98bd 905b bcbd
00000260: 8f7a ab3d 92ef 153d 066e 923c f722 30bd
00000270: 111f 133d 86e0 4abd 9c07 973d 1de7 843b
00000280: 633d 713d d4fb 953b f9db 5ebd a102 363c
00000290: 838d 9bbd c1f1 f4bc 0863 803d 9eb7 84bd
000002a0: 88f1 e83c ad89 02bd 13b5 f5bc 269d 58bd
000002b0: 1fd4 f1bc 9d4a 6d3d e5a2 9bbd d9d9 27bd
000002c0: a126 0e3d fe0d 643d 41e6 a1bd 06c4 e03c
000002d0: b9ba 633d cd75 993c daf3 18bd 34d3 5dbb
000002e0: a45b 79bd 9879 783d c59b bc3d c085 9ebd
000002f0: 46b1 13bd da67 61bd 4ff2 37bd c159 7cbd
00000300: 3772 a13d 7ce1 173d 0039 d63b 09db 9fbd
00000310: 5cba 8fbd 1784 333d 9877 ce3c eac7 39bd
00000320: 62c4 31bd 214b 083d 50eb 783d fbc3 a43d
00000330: bd49 293c f180 7cbc d0cc 03bd 0b66 4fbd
00000340: b934 a63b f580 8bbb cf10 253c dd2f 63bd
00000350: 5341 0cbd 6017 b53d a5fd 0abd dbed a03d
00000360: 39a5 8f3c df6f 9abb bc42 a53d fef3 eebc
00000370: 5739 a6bd 45ed 31bd 977f e53c fa95 043c
00000380: 5333 93bd 9be2 64bc eb66 903d d1c6 57bc
00000390: 4137 583c f705 44bd ab00 913d 4ed0 0ebd
000003a0: c46c c23c 06df d93c 7330 383b 40cf 95bd
000003b0: 69a3 1f3d 1f1a 873d 6faa 73bc cedd 85bd
000003c0: bd36 87bd f7a0 753b f3c3 08bd 0f18 a4bd
000003d0: 651c 48bd a7c3 87bd 10e9 2abd 1503 9e3d
000003e0: f748 2f3d c594 78bc 0510 49bd 13db cfbc
000003f0: 66f2 23bd 1d9a 8a3d bc8b d43c fc49 c0bc
0.060471177 0.08048029 -0.16295056 0.081864685 0.17160618 0.07636512 0.10874288 0.020106612
0.024387918 0.029946018 0.03958593 0.10842017 -0.00504358 -0.15346086 0.11341428 -0.041236363
-0.051891766 -0.012839336 -0.16845074 -0.19478789 -0.21393828 -0.00021431671 -0.25037742 -0.012197438
-0.058786135 -0.041540828 0.08277603 -0.17292291 0.22747093 -0.017483102 -0.17216104 -0.06902805
-0.05223234 -0.043650776 0.021117128 -0.19767988 -0.0009859098 0.118116885 0.07386146 -0.14768316
0.054965623 0.1861242 -0.11484205 0.09112624 0.103502996 -0.08976186 -0.21824457 -0.043949626
0.025103303 -0.05619172 0.1278987 0.05244414 0.1907257 0.091190994 0.12718216 0.115748614
-0.34848177 0.124653086 0.002912494 -0.05251575 0.13092127 0.10084131 -0.27708516 0.16130051
-0.06579591 0.1265263 -0.016700715 -0.027660316 0.012421192 -0.06776836 0.22836095 -0.010979911
0.008653343 -0.060413115 -0.08820028 0.19063297 0.13066354 0.0048206784 -0.031642687 -0.20326637
-0.039541125 -0.13582104 0.12404365 -0.20535769 -0.12181395 -0.2563564 -0.05870532 0.06147367
-0.06376019 0.10944333 -0.06665024 0.00723737 -0.24211192 -0.08079269 -0.12845561 -0.1508398
-0.042893637 -0.2573058 -0.046764456 -0.1600981 0.21613446 -0.038605023 0.114323 0.0031063582
-0.041015517 0.084018625 0.18044156 0.087266885 0.11361634 0.15540208 -0.04958304 0.02687309
0.10892392 0.055794246 0.04341528 0.044717547 -0.15500388 -0.10107292 0.12819666 0.019662818
-0.09597964 0.0023723443 -0.030018467 -0.16076063 0.014068607 -0.12983815 0.09942751 -0.15402855
0.064243026 -0.032417115 0.07072644 0.02786248 -0.01230222 0.08080721 0.029399564 0.0014117303
0.049075536 -0.07200002 0.014394183 -0.00504437 -0.07013076 -0.016937133 0.04537855 -0.08070979
-0.05108798 -0.067519106 0.04892221 -0.06899712 0.018739808 -0.023939276 -0.07445371 -0.09197152
0.083729856 0.036605425 0.017874729 -0.043002095 0.0359183 -0.04953053 0.07374498 0.004055871
0.058896434 0.0045771394 -0.054409 0.011109025 -0.075953506 -0.029900433 0.06268889 -0.06480335
0.028435484 -0.03186958 -0.02999357 -0.052884243 -0.029520093 0.057932485 -0.07599429 -0.04097924
0.03470481 0.055677406 -0.079052456 0.027437221 0.055597994 0.01873293 -0.03734193 -0.003384781
-0.06087841 0.060662836 0.09209398 -0.077403545 -0.036057733 -0.05503068 -0.044908818 -0.061609033
0.07883113 0.037080273 0.0065375566 -0.078054495 -0.07017967 0.043827143 0.025203511 -0.04535667
-0.043400176 0.033274774 0.060771286 0.08045193 0.010332522 -0.015411601 -0.032177746 -0.050634425
0.005072203 -0.0042573162 0.010074808 -0.055465568 -0.034241986 0.08842349 -0.0339333 0.07857867
0.017534839 -0.004713043 0.08069369 -0.029169079 -0.081164055 -0.04343917 0.028014941 0.008092398
-0.07187524 -0.013970043 0.0705088 -0.01316996 0.013196767 -0.04785725 0.070802055 -0.034866624
0.023733504 0.026595604 0.002810505 -0.073149204 0.0389742 0.06596779 -0.0148721775 -0.065364465
-0.066022374 0.0037479976 -0.033389997 -0.08012401 -0.048855204 -0.066291146 -0.041726172 0.077154316
0.042794194 -0.015172188 -0.049087543 -0.025373017 -0.04002609 0.06767676 0.025945537 -0.023472778

net.0.bias f4 [256]
00000000: cb50 a13d fa80 58bd 3938 843c d414 bf3d
00000010: d4dd d83d 14f1 983d 4cb8 423d ec6a 533d
00000020: 5acb c03d 4b76 d93d d278 2abd edef 36bd
00000030: 2bc9 a83d 986e 01bd 53af 77bd 3ece d63d
00000040: 896b 463d eb72 97bd 0c9e fbbc c6b2 583c
00000050: e4ad 87bd 68f7 ef3c d94f 713c 52f2 723d
00000060: 57de b1bd 8147 843d 48c7 9bbd 496b babd
00000070: b20f 5bbd 9e7e 3ebd bfed df3d 23f7 7ebc
00000080: 1b99 013d 30e7 c7bc 79f3 acbd 2cfd eebc
00000090: 332e b23d 4ac4 65bc 50a5 c1bc a37f 1ebd
000000a0: 85b6 653d cc2e 833c 4ee6 ebbc 4e3f acbd
000000b0: ae86 6c3d 99a2 a03d 9bf1 623c acb7 513d
000000c0: cf7f 7a3d a7b6 96bd e65f 06bd bc5f b73d
000000d0: 9884 6e3d e639 cdbb 5c2d c33c 1060 8fbd
000000e0: b001 993d 5fc4 8ebd 9a5d c33d c6bf 4ebc
000000f0: 9d82 adbd bcff 2fbd 2317 a13d 5a3f 9b3d
00000100: 9405 b83d a29d 823d 00c2 8b3b 0ea1 0e3d
00000110: 5784 963d b19e 253d ab66 913d 3718 b0bd
00000120: ff3d 9dbd c25d 963d 69b2 9ebc fcc7 273d
00000130: 46da 463d 916d 493d 7a20 35bd a921 8ebd
00000140: fbec 433c 1dd3 c33d d96b 6d3d 0147 513d
00000150: 3a37 82bd 7dc9 ceba 621a 0c3d bfd4 bb3d
00000160: a7c8 4d3d b0f6 e9bb 5327 da3c 4bda 73bd
00000170: 65a2 09bd a11c 2a3d fdd7 4f3d 6205 783d
00000180: b9ec 3ebd 2bcb bf3d 428c 083d 5e22 e33b
00000190: d884 393d 5209 183c cdf0 ce3d 72f2 9abd
000001a0: 6971 c23d a7ee 2abd e08d 66bd 2c1a 31bd
000001b0: 20e6 cd3d a812 a63c 4dcb 413b d294 00bd
000001c0: 688a 2bbc 5dba 3c3d e962 c43b 2282 adba
000001d0: c75d 433c cad4 97bd 51b9 34bd 2ce8 5bbd
000001e0: 0e40 01bd b659 b83d 99c3 963d a504 56bd
000001f0: 1cbd febc fe77 b43c 9439 a4bd 909c b2bd
00000200: 847a c13b 4096 f7bb 959b 843c 7d73 8a3c
00000210: 594c c13d d36f 07bc 9485 45bd a131 853c
00000220: 7176 693d 58a4 b3bc 653d 5bbd 61de a6bd
00000230: 90e6 6ebc fda8 ac3d 8a3c 393d 0dc6 06bd
00000240: aac6 cf3d 758f a93d 86a3 92bd 112e 38bd
00000250: 22df 8dbd 9c12 dd3d 933e 313b f8f0 bf3d
00000260: efcb 14bb 1211 ec3c 32fc 1c3d a83a 94bc
00000270: c0bc ff3c 2bbb 07bd 2d0c be3d beea 93bc
00000280: d810 37bd 6043 d33c e36c 9e3d 54ea 013d
00000290: 19fa 4f3c 54f0 593d be5f 523d 1f74 b33d
000002a0: 84a3 5fbd 4823 c23d acdc 3e3c 9ac7 60bd
000002b0: 0f3e eabc a918 2d3d 9f77 f43c 2510 88bd
000002c0: 18bb 453d 6cab 70bd 78af d43c ecaf db3a
000002d0: 1f28 aa3d 0350 abbd e409 f2bc 67ce 3abd
000002e0: 580e 82bd 03c0 a33d 417d 2a3d b7b0 23bd
000002f0: e44f d93c 6842 4f3d e04f 23bc cf7b 94bb
00000300: 2861 473c e323 193d 35e7 9cbd 5429 7ebb
00000310: 947e e23c 8d74 ae3d d421 03bd dd57 21bd
00000320: da03 053d e9bd 983d 4c68 81bd 688a 2cbd
00000330: 4097 69bb 8ce1 15bd 493f 613d 2ebd debc
00000340: 8afa d03d 8c24 0bbd 231d 9cbc 2e50 e63c
00000350: 5f45 8e3d 84b0 61bd 863d 5f3d 59cd edbc
00000360: 3eaf 2fbd 116d 463d 8904 0ebd 25be a3bd
00000370: 300b eebc 5627 b63d 897a 53bd 4982 703d
00000380: 1b6a 5d3d 96fe 3b3d 03fa bc3d 3456 083c
00000390: 2f2e be3d e8c8 68bb e53d 17bd 4eec acbd
000003a0: c543 9b3d d3dd edbc 7092 8dbd 8f17 b2bd
000003b0: 6103 b3bd 0c79 4d3d d1ed 38bd dfdc aebd
000003c0: 0c17 3e3d 2ead e53d e4f8 d63d dc79 99bd
000003d0: c63e 2cbd 08f2 a83c 9ca2 a33d d55b a63d
000003e0: 2b45 673c 830f 9abc b749 48bd 3619 97bd
000003f0: 47c1 803d fd7b 43bd d17c a8bd 56db 223c
0.07876738 -0.052857377 0.01614009 0.093301445 0.10589185 0.07467857 0.04753904 0.05161564
0.09413786 0.10618266 -0.04161913 -0.044662405 0.08241495 -0.03159961 -0.060469937 0.10488556
0.048442397 -0.07394966 -0.030715011 0.013226217 -0.06624964 0.029292777 0.01472851 0.059313126
-0.08684986 0.06458951 -0.07606369 -0.09102494 -0.053481765 -0.04650747 0.10934018 -0.015561852
0.031640153 -0.024402231 -0.08444876 -0.029173456 0.08700218 -0.01402385 -0.023638397 -0.038695943
0.056082267 0.016013525 -0.028796341 -0.08410512 0.057745628 0.07843513 0.013851549 0.051200554
0.061157044 -0.07359057 -0.0328063 0.08953807 0.05823192 -0.0062630055 0.02382534 -0.07000744
0.07471025 -0.069710486 0.095393375 -0.012618965 -0.08472178 -0.042968497 0.07865741 0.07580443
0.08985439 0.06377722 0.00426507 0.034821562 0.073494606 0.040434543 0.070996605 -0.085983686
-0.076778404 0.07342102 -0.019372182 0.040962204 0.048548006 0.049176756 -0.044220425 -0.06940014
0.011958356 0.09561751 0.05796418 0.051093105 -0.0635819 -0.0015776601 0.034204848 0.091714375
0.050240185 -0.007140003 0.02663008 -0.059534352 -0.033602137 0.04153121 0.05074309 0.06055201
-0.046612475 0.09364923 0.033336885 0.006931587 0.045292705 0.009279566 0.10104523 -0.07565774
0.094942875 -0.041731503 -0.056287646 -0.04323785 0.100536585 0.020272568 0.002957064 -0.031391926
-0.01047001 0.046076167 0.0059932363 -0.0013237635 0.011924214 -0.07413633 -0.044122044 -0.053688213
-0.031555228 0.09001486 0.07361526 -0.052250523 -0.031096034 0.022029873 -0.08018795 -0.08721268
0.0059044976 -0.007555753 0.016187469 0.016900772 0.0943839 -0.008266407 -0.048223093 0.016259016
0.05699772 -0.021928951 -0.053525347 -0.08147884 -0.014581338 0.084306695 0.04522375 -0.03290372
0.10145314 0.082793154 -0.07160096 -0.044965807 -0.06927325 0.10794565 0.0027045354 0.09372133
-0.0022704562 0.028816734 0.03832645 -0.018094376 0.031217933 -0.03313748 0.09279666 -0.01805627
-0.044693798 0.025788963 0.07735612 0.031717613 0.012693905 0.05320771 0.051360838 0.08762383
-0.0545993 0.094793856 0.011649292 -0.054877855 -0.028594045 0.042259846 0.029842196 -0.06643704
0.04827413 -0.05875723 0.025962576 0.0016760803 0.08308434 -0.083648704 -0.029545732 -0.045606997
-0.06350392 0.07995608 0.041623358 -0.03996345 0.026527353 0.05060044 -0.009967774 -0.0045313607
0.01216916 0.03738774 -0.07661287 -0.0038781958 0.027648248 0.08518324 -0.032014683 -0.039390434
0.032474376 0.074580975 -0.06318721 -0.042124182 -0.003564313 -0.03659205 0.054991994 -0.027189817
0.102040365 -0.0339704 -0.019056862 0.028114405 0.06946825 -0.05509998 0.054502033 -0.029028581
-0.042891733 0.048443858 -0.034672294 -0.079952516 -0.029058069 0.088942215 -0.05163053 0.058718
0.05405627 0.04589709 0.092273735 0.008321334 0.092861526 -0.003552014 -0.03692426 -0.08443509
0.075812854 -0.029036438 -0.06912696 -0.086959 -0.08740879 0.050164267 -0.045148674 -0.085382216
0.046408698 0.11214672 0.10496691 -0.07493946 -0.042052053 0.020623222 0.0799 0.08122984
0.014115612 -0.018806225 -0.048898425 -0.073778555 0.06286865 -0.047725666 -0.08226932 0.009939989

net.3.weight f4 [128, 256]
00000000: 6fcf ed3c 5202 35bd e8c5 b13d c4fd a63d
00000010: 563d 0b3e f5bf 133d 1b79 c0bb e029 9d3c
00000020: 38ac 9f3d ccc5 f33c 229d 0b3d 4472 a13c
00000030: ebb9 e33d 7f63 883d b03a 3e3c 3ab6 223e
00000040: efa9 793d b4eb 2dbd e0e3 cfbc cc5f 2bbd
00000050: 0065 ac3a 7c32 e83d 9b7c 65bd 8e92 05bd
00000060: 4036 143b 2959 e0bd 9835 563c c07c d3ba
00000070: 1c05 4fbd 220b 263d 1c81 b33c e832 f6bc
00000080: 72fb 8ebd 70b1 39bc b660 433d 06f5 7f3d
00000090: 324e 253d 50ee 80bc f0a2 443c e0b9 fa3c
000000a0: 444c 33bd 5263 0a3e 6af0 643d 96f2 3abd
000000b0: 4a9e 07bd 7deb 933c b69a 703c a5f5 0ebe
000000c0: b9c5 323d 0ec6 3dbd a4af 313d 5c4e 4c3d
000000d0: 10ea 9b3c 2982 2bbd 5c10 b43c 6eab 58bd
000000e0: bb1e a3bd 2e3c 413d 5a30 65bd 6e3f 253e
000000f0: f4bc 78bd d208 3cbd 88a9 943c 7422 8bb8
00000100: 5e6a 19bc fc02 7f3c a391 6c3d 5924 2a3d
00000110: 70fe 83bd e737 fabc d6f6 0d3d 7631 25bd
00000120: c239 373d 39fe 2b3c 4e5a c63c 4a66 1cbd
00000130: c56d f9bc 166a 04bd 10c5 60bd 4001 02bd
00000140: 0108 5c3d b878 ab3b a601 7b3d 966e b6bd
00000150: b4b4 f43c fad9 1fbd 964b 093d 8bd5 ee3d
00000160: 099c 193d 786a cbbc 8846 373d 162a 5cbd
00000170: 4f4b 01be 0009 cdbd 00d3 8fbb 35a8 97bd
00000180: 3dc0 deba 011f a03c 9d12 793d 614b 883d
00000190: 4ebd 873d 7c3a 193d cb4e 663d 08ba c7bc
000001a0: fd1d 3c3e c013 493b 9e1e 2e3d daa5 613d
000001b0: 2a4a bf3c e8d3 54bc 224a 75bc f4cb c9bc
000001c0: 7c8b f73c 736a f03d f163 44bd 2a37 52bd
000001d0: e43e 87bc a847 343d b8f9 39bd 0078 ee39
000001e0: 56bb 33bd a341 e53b 8071 a53d c0b6 bc3b
000001f0: 2aff 3f3d 00e0 033b 7487 cc3c 9052 b8bc
00000200: 531f 0e3d 242f 93bc 48f9 673d e7c3 fc3c
00000210: 230e 213d a871 c23d 8a9a d73c 94a8 debb
00000220: 0b2a c13d 401e 92ba 8c4c abbc bc44 a7bc
00000230: a0df 89bb cc18 33bd 284f 19bd 95e9 e53b
00000240: 1cbe 873a 839b 22be ec69 15bd bc7e b0bd
00000250: fc8a cf3c 210f debc 00aa a13c df92 02bc
00000260: 67bb 12bc d820 c83d 7704 17be 90bc 8a3b
00000270: b731 cd3c c8f7 da3d 653c 4f3d e5fb f8bc
00000280: d147 823c e256 323d 27da 8bbd f8c7 6d3b
00000290: a6ba 84bb 5e4c ce3b a8d1 713c 5a57 513d
000002a0: a8ba 8d3c f339 73bd db32 903d c62c 6abd
000002b0: 77b1 183e 6a48 6c3c fa6f 76bd b237 44bd
000002c0: 4404 bd3c d8dc 7cbd 47cf e1bc b9e6 f73d
000002d0: 8022 323e c810 fabc 2293 aabd 5402 113e
000002e0: b8f5 e9bc b0ea 173d 491a 4b3e 9a23 33bd
000002f0: f723 43bb 61cd c7bd 5ead aa3d 454f dc3d
00000300: 0b1f 0bbd 4db7 aa3a 3cd6 913c e82f 3d3d
00000310: d2e3 0cbd d778 ad3d f281 41bd 1673 373d
00000320: 31eb c53d 29bb 10bd 051f 9dbd f2a1 10be
00000330: cc5f 6d3d 5e7c 1d3d fcc0 85bd ef9d 24be
00000340: e836 c73b b8f3 babc 083d 753d e80b fcbc
00000350: 6a87 243e 8046 0abb bd6e 0cbc d465 c23c
00000360: c0ab 66bb 9c3f 0b3e 44a3 863d 5298 073d
00000370: c672 8abd 0e42 27bc e647 64bd 7944 4ebd
00000380: 98a4 303d 5bf8 9b3d 74bc 11bc 6051 42bd
00000390: 5f3b 17bd cda1 4d3d e201 af3d f802 893c
000003a0: f9d1 f2bc cc01 1a3e b00b eb3b fc7a da3c
000003b0: f063 10bc 0cae f63c 1a08 03bd f89c cbbc
000003c0: f584 0f3e ad4e 98bb ce71 dcbc 2c85 19bd
000003d0: 2e8f 843d d478 f23c 2c2b 24be 733c 1a3d
000003e0: 9806 e8bd d5da 46bd e43b 11bd c067 3b3d
000003f0: 4089 933d ccfa 3ebd 34e9 863c 8f09 283d
0.029029576 -0.044191666 0.08680326 0.08153871 0.13597617 0.036071736 -0.005873812 0.019185007
0.0779652 0.029757403 0.0340854 0.019707806 0.111194454 0.066596024 0.011610672 0.15889826
0.060953077 -0.042461112 -0.025377214 -0.041839406 0.0013152659 0.11337754 -0.056027036 -0.03261047
0.0022615343 -0.10954506 0.013074301 -0.0016135201 -0.050541982 0.04053796 0.02191215 -0.03005357
-0.06981553 -0.011333808 0.047699653 0.062489532 0.040357776 -0.015738636 0.012001738 0.03060621
-0.043773904 0.1351445 0.05589334 -0.045641504 -0.03310994 0.018056626 0.014685323 -0.13960893
0.043645594 -0.046331458 0.043380395 0.049879417 0.019032508 -0.041872177 0.021980457 -0.052897863
-0.07964846 0.047176532 -0.055954315 0.16137478 -0.060727075 -0.04590685 0.018147245 -6.634454e-05
-0.009363739 0.015564676 0.057756077 0.04153857 -0.064450145 -0.030544234 0.03465923 -0.040330373
0.044732817 0.010497623 0.024212983 -0.038183488 -0.03044785 -0.032327734 -0.054875433 -0.031739473
0.05371857 0.0052328967 0.06128087 -0.08907811 0.029871322 -0.039026238 0.03351935 0.11661824
0.037502322 -0.024831042 0.044745 -0.053751074 -0.12626384 -0.10011482 -0.004389167 -0.0740513
-0.0016994547 0.019546034 0.060808767 0.066550024 0.06627904 0.03740929 0.056227487 -0.024380699
0.18370815 0.0030681938 0.042509668 0.05508981 0.023350794 -0.0129899755 -0.014971288 -0.024633385
0.030217879 0.117390536 -0.047946874 -0.05132214 -0.01650948 0.04401365 -0.045404166 0.00045484304
-0.04387983 0.00699635 0.08078289 0.00575909 0.046874203 0.0020122528 0.024966933 -0.022500306
0.03469784 -0.017966814 0.056634218 0.030855132 0.039320122 0.094943345 0.026318807 -0.0067949984
0.09431847 -0.0011147931 -0.020910524 -0.020418517 -0.0042075664 -0.04372482 -0.037429005 0.0070163705
0.001035634 -0.15879636 -0.036477968 -0.08617923 0.025334828 -0.027106823 0.019734383 -0.007969587
-0.008955813 0.097718894 -0.14747797 0.004233904 0.02504812 0.10691792 0.050594706 -0.03039355
0.015903385 0.04353989 -0.06828719 0.003628252 -0.0040505705 0.006295725 0.014759459 0.051108696
0.017300919 -0.059381437 0.0704095 -0.057171606 0.14911447 0.014421562 -0.060165383 -0.047904678
0.023073323 -0.06173405 -0.027564658 0.12104554 0.17395973 -0.03052558 -0.083288446 0.14161044
-0.02855955 0.03708905 0.19834246 -0.043735124 -0.0029776075 -0.0975597 0.083338484 0.10757307
-0.03396515 0.0013024599 0.01780235 0.046188265 -0.034396954 0.08470314 -0.047243066 0.04478749
0.09664 -0.03533474 -0.07671932 -0.14124277 0.057952687 0.038448684 -0.065309495 -0.16075872
0.0060795434 -0.022821292 0.059872657 -0.030767396 0.16067281 -0.002109915 -0.008571324 0.023730196
-0.0035197586 0.13598484 0.06574109 0.03310425 -0.067601725 -0.01020862 -0.05573263 -0.05035827
0.04312572 0.076157294 -0.008895028 -0.047440886 -0.036921855 0.050203133 0.08545281 0.016725048
-0.029641138 0.15039748 0.007173024 0.026669972 -0.008812889 0.030112289 -0.031990148 -0.024855122
0.14015563 -0.0046480508 -0.026909735 -0.03748052 0.06472622 0.029598631 -0.16032094 0.037655305
-0.11329383 -0.04854854 -0.035457507 0.04575324 0.07203913 -0.046625897 0.016468622 0.04102474

net.3.bias f4 [128]
00000000: a68f 12bc d5d4 77bc 4efe 8abd 23d8 43bd
00000010: 5fe0 683d 639a fdbc d014 6ebd e8fc d23d
00000020: b193 0b3d a124 0a3c 2488 c43c 73f4 623d
00000030: 9be4 8e3b 418b c03b ce22 a43c 788b 8e3d
00000040: 9313 1c3d 2222 d13c 95f2 993d dbb7 c5bb
00000050: c930 1b3d e73f 563b 1a18 a53d 5a96 d8bc
00000060: 688f 903d 6cd8 04bc 3416 d2bb 3698 e23d
00000070: d413 c63c 6061 a73d 73b6 b33d 41cb 4b3d
00000080: f289 91bd 6b1d 7b3d 13f9 a53d 3096 883d
00000090: c2e3 a3bc 7220 ca3d 32ec abbb 18b9 123d
000000a0: 27ca 82bd c445 f8bc 83d6 df3c fb1a a23c
000000b0: d7af a43d 4616 643d 3683 97bc 6cf3 933d
000000c0: b952 823d cf10 913d b274 b13d 61cb 5d3d
000000d0: 2599 60bd 249e 383d 66bc 133d 6d3a 9dbb
000000e0: e85f ecbc 7f20 e4bc d99f b43d d79e 6dbd
000000f0: f586 78bc a2b6 413d a3e4 a13d 9dea 743d
00000100: 961e 613c f1a8 0b3d cdcd 8dbc d005 07bd
00000110: f95b 693c 04a8 4a3c a0be c8bc fe62 813d
00000120: e1f6 193d 7603 b83b f66e 8abd 6bfe 99bc
00000130: 9b6f 4f3d 95d8 333d 58b2 2aba 993e ac3d
00000140: ffab 833d 85f8 2dbd f34c 0a3d 0db6 25bd
00000150: 72d9 373d a490 f8bc 0405 d5bb 96bd 803c
00000160: 9107 a73a 9ad5 e23d acc9 d23c 9e8a 7f3d
00000170: 5001 bb3c a133 263d b666 a73d 2692 c63d
00000180: 36de 84b9 9536 073d f116 623d 8887 57bc
00000190: ff4d a43c 5a35 38bc 1184 123c 42ac 98bc
000001a0: 4dc3 cfbc 05c6 9b3d f455 c63c e3c6 b53d
000001b0: 9dfa 8abd 1f0a 923d 80a1 513d 6f6d b83d
000001c0: 73a5 683d 7934 a43d bc9b b73b 3d34 9b3d
000001d0: e9a4 1c3d 8f5c 7e3d 1d87 28bd 287b 7cbc
000001e0: c5d5 36bd cdc9 b6bc cb1e 9e3d 07d7 d1bc
000001f0: de69 793d 1b67 033e 7210 f83a c815 a03d
-0.008945381 -0.015126427 -0.06786786 -0.047813546 0.056854602 -0.030957406 -0.058125317 0.10302144
0.034076396 0.008431585 0.023990698 0.055408906 0.004360748 0.0058759754 0.020036127 0.06960195
0.038104605 0.025528971 0.07516972 -0.00603388 0.037888322 0.0032691897 0.08061238 -0.02643888
0.070586026 -0.00810824 -0.006411338 0.11064188 0.024179377 0.0817287 0.08775034 0.049754385
-0.07106389 0.061307352 0.08104148 0.06669271 -0.020006064 0.0986947 -0.0052466625 0.03582105
-0.06386214 -0.030306704 0.027323967 0.019788256 0.08041351 0.055685304 -0.018495183 0.072241634
0.06363434 0.07083284 0.08664836 0.054149035 -0.05483355 0.04507269 0.036068343 -0.0047982247
-0.028854325 -0.027847527 0.08819551 -0.05801281 -0.015168895 0.047293313 0.07904937 0.059794057
0.013740202 0.034096662 -0.017310048 -0.032964528 0.014243119 0.01236916 -0.02450496 0.063177094
0.037588958 0.005615647 -0.06759445 -0.018798074 0.050643545 0.04390772 -0.00065115606 0.08410377
0.0642929 -0.042473335 0.03376479 -0.04045682 0.044885106 -0.030342408 -0.006500842 0.015715402
0.0012743344 0.110758975 0.02573093 0.062388055 0.022827774 0.04057658 0.081738874 0.09695844
-0.00025342562 0.033011038 0.05519766 -0.013154872 0.020056723 -0.011243189 0.00894262 -0.018636826
-0.025361681 0.076061286 0.024210908 0.08875825 -0.06786082 0.07130837 0.05117941 0.09005248
0.05679841 0.08017821 0.005603282 0.07578323 0.038243208 0.06209999 -0.04114448 -0.015410222
-0.04463746 -0.022313023 0.07720717 -0.025615228 0.06089198 0.128323 0.00189258 0.078166544

net.6.weight f4 [17, 128]
00000000: d5ac fa3b c7f1 9b3d eae0 8e3d 518d 83bc
00000010: 86b0 b23d 03cc 9b3d 7748 6dbd f980 c4bd
00000020: 539d e2bd e863 f43d 1ec0 0f3e 5d56 4bbe
00000030: e27e 19be 1030 bc3d 8bf9 c73c e2f8 623d
00000040: 3efe ed3d 548f e3bd bf3f de3d f243 053c
00000050: c829 663b 9cef 833d 55e4 f73d 7977 943d
00000060: c424 963d ea38 5c3c 9858 273e f528 8bbe
00000070: 658b d1bc 0b94 8ebd c464 18be 3837 0ebd
00000080: 5d28 6a39 3ea9 a0bd aa50 cb3d 36f2 02bd
00000090: 9e47 54be 03a0 7c3d d3eb 44bd 1cad 87be
000000a0: 1d1b b7bd 079c a63c 6492 0d3d 587c 88bd
000000b0: 5da1 063e d3ad 40be 2cdf 153d 4ec1 1d3e
000000c0: 56a0 32bd f169 343c bbeb 4cbb c8e5 313e
000000d0: c07c 18bd ce6d 95be 7b3e d23d 7918 223e
000000e0: 1094 213e 2d58 2abe ab23 12bd bf59 97bd
000000f0: 8964 1bbe ee4c a83b c7e6 13be 917a e63b
00000100: 544c 403d eb38 7c3d 8cff 2a3d e186 3abc
00000110: 2e56 06bd 42d6 84be 3a49 e03d dbec 8f3b
00000120: e325 e73d 5b28 7cbe 4e01 f9bb e606 a2bd
00000130: c4e2 a33d 9f52 58bd 3ee1 ccbc c026 6abe
00000140: 3c84 b53d 82ce d1bb e706 c33d 8e42 543d
00000150: 566f 493d 3c12 4bbe 7252 d63d 1d2c ebbc
00000160: 5f8c 453d 1c09 68be b2c0 0e3e 37d1 1e3d
00000170: b580 1ebe e5c9 5b3d 31e4 c43c f4df 83be
00000180: 5bea bebd 050c 8bbd 24a3 c2bd 248f d23d
00000190: fb11 3e3d dcc1 493c c8b3 103e a14c a2bc
000001a0: 337d cfbd ea2e 903c 2489 67ba 188c f03c
000001b0: 50c9 193d 10fd 973d cc01 84be 3093 78be
000001c0: 02b2 553d 75f3 4c3d f52a 1a3d 051c 49be
000001d0: f08a 3ebe 0901 a93d 5cfc 6b3d 0775 6ebd
000001e0: d018 6bbd da20 c0bd 8df7 5ebd 7a51 18be
000001f0: cbe8 843d 0886 a5be fcac d5bb 96eb b7bd
00000200: fed0 21be ec8b 8cbe 21aa 0ebd d22b b7bd
00000210: ec5c 68bd e014 823d 9c86 04bb 4455 f03d
00000220: 1023 79be 73c9 c1bd d2b9 b1be 920c fcbd
00000230: 0527 f1ba 800c 37be d4cc d5bd 59fd 47be
00000240: 938b 3b3e dd4c 8fbd 9aa0 debd d31a 49bd
00000250: a87c 1ebe a734 2dbe 151d 073e af1b 5c3d
00000260: 99fb 05bd 9e20 923d 392e 03be 6913 cc3d
00000270: 70b7 163e 6324 ae3d 0e77 b63d cb21 7ebe
00000280: a5c6 813d 6be9 06be 5faf 31be c9e2 87bd
00000290: 7d7d ee3d ffa2 e53c 5545 093d 9137 ca3a
000002a0: 486d 0abd 0fc7 3abe 1983 703d 026f 8cbd
000002b0: 5a41 02bb f18d 71bd 04ef 23be f511 6ebe
000002c0: a475 8d3c 4f83 5bbd ee4b 453c 6dc1 893b
000002d0: efcc 723d d7e7 483d b07e 12be 5b4f 1dbc
000002e0: 5e9a 02bb 8aa1 93bd e352 8b3d c619 923c
000002f0: f071 95bb 73f3 853d 5e21 8f3d 454a dd3c
00000300: 3909 0e3e c15a 4bbe b177 523d f984 f2bd
00000310: 9e43 ecb9 a2aa 873d fb55 c8bc bd37 05be
00000320: e105 23be fb3c 003e 9d9f 08bd 9c91 7dbd
00000330: d12b 35bd 3bb3 43be 8d16 cf3d 63a4 d03d
00000340: b633 70be a8a8 dbbd 8afd 51be 7898 20bd
00000350: 9de0 2bbe 4b47 853d 711b 4dbe 46ef 923d
00000360: 9079 90be d62e 843d c6c9 fa3b df74 1a3e
00000370: 3475 203e ecb5 8e3b 7bf5 973c 52d1 4c3d
00000380: 5ccd 043d 62b1 163e f821 543d 9190 b2be
00000390: 6989 6ebe c7f9 c0bd c0a1 54be 62c2 50be
000003a0: 880a 1bbe 5d54 343d f957 28be 8220 8abc
000003b0: 64f8 97ba c36d be3c 136d 0a3e 42fb 183e
000003c0: b66b ea3c 2de6 dd3d cac9 c13d 5458 4fbb
000003d0: 831a c03d 9c50 86bc 8cc4 2dbe 09d1 023d
000003e0: 0826 59bd 4dc1 c5bc 987c 48be 4335 7dbd
000003f0: 1164 013e 38fb 083e 3996 9a3c 49e2 033e
0.0076499977 0.07614475 0.06976493 -0.016058596 0.087250754 0.076072715 -0.057930436 -0.09594912
-0.110651635 0.11933118 0.1403813 -0.19857164 -0.14989808 0.09188855 0.024410984 0.055413134
0.116207585 -0.11111322 0.10852002 0.008133875 0.0035120118 0.06442186 0.12104098 0.0724935
0.07331231 0.013441304 0.1634239 -0.27179685 -0.025579164 -0.06961831 -0.14882189 -0.03472063
0.00022331015 -0.078447804 0.09927495 -0.03196927 -0.20730445 0.061676037 -0.048076462 -0.2649926
-0.08940718 0.020338072 0.034563437 -0.06664342 0.13147493 -0.18816309 0.036589786 0.15405771
-0.04360994 0.0110115865 -0.0031268436 0.17372811 -0.037228346 -0.29185337 0.102658235 0.15829648
0.15779138 -0.16635199 -0.035678547 -0.073901646 -0.1517507 0.005136124 -0.14443503 0.007033654
0.046947792 0.06157772 0.041747615 -0.011384697 -0.03279703 -0.25944716 0.10951467 0.004392249
0.11286523 -0.2462477 -0.0075990325 -0.07911472 0.080022365 -0.05281317 -0.025009748 -0.22866344
0.08863112 -0.0064027915 0.09522801 0.051821284 0.049178444 -0.19831175 0.10464944 -0.028707558
0.04822957 -0.22659725 0.13940695 0.03877374 -0.15478785 0.05365934 0.024034591 -0.257568
-0.093220435 -0.06789402 -0.09503773 0.10281208 0.046403866 0.012314286 0.14131081 -0.01981193
-0.10131302 0.017600495 -0.0008832386 0.029363677 0.037545502 0.07421315 -0.2578262 -0.24274898
0.052171715 0.050036866 0.037638623 -0.19639595 -0.18607688 0.082521506 0.057613716 -0.058217075
-0.05739671 -0.09381266 -0.0544353 -0.14874831 0.06489714 -0.3232882 -0.0065208655 -0.08980481
-0.1580238 -0.27450502 -0.034830216 -0.08943905 -0.056729242 0.06351638 -0.0020221835 0.11735013
-0.24329782 -0.094622515 -0.34712082 -0.12307085 -0.001839847 -0.17875862 -0.104394585 -0.19530238
0.18314962 -0.069970824 -0.10870476 -0.049097847 -0.1547724 -0.16914617 0.13194688 0.05373734
-0.032710645 0.071351275 -0.12810601 0.0996464 0.14718413 0.08503034 0.08909427 -0.24817578
0.063367166 -0.1317498 -0.17352055 -0.06635053 0.11645029 0.028031824 0.033513386 0.0015427937
-0.033795625 -0.18239997 0.058718774 -0.068571106 -0.0019875378 -0.058973256 -0.16009146 -0.23249038
0.01726801 -0.053592023 0.012042029 0.0042039664 0.05927747 0.049049225 -0.1430614 -0.009601439
-0.0019928436 -0.072085455 0.06802919 0.017834555 -0.0045607015 0.06540575 0.06988786 0.027012954
0.13870706 -0.19858839 0.051383678 -0.11841769 -0.00045063806 0.066243425 -0.024455061 -0.13009544
-0.15920211 0.12523262 -0.033355344 -0.061906442 -0.04423124 -0.1911134 0.10111723 0.10187604
-0.23457226 -0.10725528 -0.20506874 -0.039207906 -0.16784902 0.06507739 -0.2003 0.07174544
-0.28217745 0.06454246 0.007653448 0.15083645 0.1566971 0.004355183 0.018549671 0.05000431
0.03242241 0.14716104 0.051790208 -0.3487592 -0.23294605 -0.09422641 -0.20764828 -0.20386651
-0.15140736 0.044025768 -0.16439809 -0.016861204 -0.0011594412 0.023245698 0.13518171 0.14939597
0.028615814 0.10834918 0.09462316 -0.003163834 0.09380057 -0.01639586 -0.16969508 0.031937633
-0.053014785 -0.024140025 -0.19578779 -0.061818372 0.12635829 0.13377082 0.01887046 0.1287929

net.6.bias f4 [17]
00000000: 9ee8 2ebd 63db 1d3c 89da afbd 27a0 ab3d
00000010: 067c 303d 4d75 243d ad91 1abc 79dc 2c3d
00000020: f334 84bc fb34 4bbc a5a0 713c ddaa d13d
00000030: 5c93 2f3d 9002 0bbd 509d ae3a fa90 be3d
00000040: fe7c 81bd
-0.04270231 0.009634825 -0.08586604 0.08380156 0.043087028 0.04015093 -0.009434146 0.042202447
-0.01613853 -0.012402768 0.014747773 0.10237668 0.042865142 -0.03393799 0.0013322029 0.09304996
-0.063226685
